current model: CNN_LSTM
best train error:0.7305202951502268
best validation loss:7.293218227380361
final test loss:16.104890867379996
time to predict is (seconds):5
Time use to predict:2
Train examples (images):79360
Val examples (images):19200
Test examples (images):19200
AutoEncoder(
  (encoder): Sequential(
    (0): Conv2d(3, 8, kernel_size=(5, 5), stride=(1, 1), padding=(2, 2))
    (1): ReLU()
    (2): MaxPool2d(kernel_size=3, stride=2, padding=1, dilation=1, ceil_mode=False)
    (3): Conv2d(8, 16, kernel_size=(3, 3), stride=(1, 1), padding=(1, 1))
    (4): ReLU()
    (5): MaxPool2d(kernel_size=3, stride=2, padding=1, dilation=1, ceil_mode=False)
    (6): Conv2d(16, 32, kernel_size=(3, 3), stride=(1, 1), padding=(1, 1), bias=False)
    (7): ReLU()
    (8): MaxPool2d(kernel_size=3, stride=2, padding=1, dilation=1, ceil_mode=False)
  )
  (fc1): Linear(in_features=2688, out_features=1024, bias=True)
  (fc2): Linear(in_features=2688, out_features=1024, bias=True)
  (fc3): Linear(in_features=1024, out_features=2688, bias=True)
  (decoder): Sequential(
    (0): ConvTranspose2d(32, 16, kernel_size=(3, 3), stride=(2, 2), padding=(1, 1), output_padding=(1, 1))
    (1): ReLU()
    (2): ConvTranspose2d(16, 8, kernel_size=(3, 3), stride=(2, 2), padding=(1, 1), output_padding=(0, 1))
    (3): ReLU()
    (4): ConvTranspose2d(8, 3, kernel_size=(4, 4), stride=(2, 2), padding=(1, 1))
    (5): Tanh()
  )
)
LSTM_encoder(
  (lstm): LSTM(4096, 300, batch_first=True)
)
LSTM_encoder(
  (lstm): LSTM(8, 300, batch_first=True)
)
LSTM_decoder(
  (lstm): LSTM(600, 600, batch_first=True)
  (out): Linear(in_features=600, out_features=20, bias=True)
)

current model: CNN_LSTM
best train error:15.000064783593265
best validation loss:13.938445666088507
final test loss:28.545392476595367
time to predict is (seconds):5
Time use to predict:2
Train examples (images):79360
Val examples (images):20480
Test examples (images):20480
AutoEncoder(
  (encoder): Sequential(
    (0): Conv2d(3, 8, kernel_size=(5, 5), stride=(1, 1), padding=(2, 2))
    (1): ReLU()
    (2): MaxPool2d(kernel_size=3, stride=2, padding=1, dilation=1, ceil_mode=False)
    (3): Conv2d(8, 16, kernel_size=(3, 3), stride=(1, 1), padding=(1, 1))
    (4): ReLU()
    (5): MaxPool2d(kernel_size=3, stride=2, padding=1, dilation=1, ceil_mode=False)
    (6): Conv2d(16, 32, kernel_size=(3, 3), stride=(1, 1), padding=(1, 1), bias=False)
    (7): ReLU()
    (8): MaxPool2d(kernel_size=3, stride=2, padding=1, dilation=1, ceil_mode=False)
  )
  (fc1): Linear(in_features=2688, out_features=1024, bias=True)
  (fc2): Linear(in_features=2688, out_features=1024, bias=True)
  (fc3): Linear(in_features=1024, out_features=2688, bias=True)
  (decoder): Sequential(
    (0): ConvTranspose2d(32, 16, kernel_size=(3, 3), stride=(2, 2), padding=(1, 1), output_padding=(1, 1))
    (1): ReLU()
    (2): ConvTranspose2d(16, 8, kernel_size=(3, 3), stride=(2, 2), padding=(1, 1), output_padding=(0, 1))
    (3): ReLU()
    (4): ConvTranspose2d(8, 3, kernel_size=(4, 4), stride=(2, 2), padding=(1, 1))
    (5): Tanh()
  )
)
LSTM_encoder(
  (lstm): LSTM(4096, 300, batch_first=True)
)
LSTM_encoder(
  (lstm): LSTM(8, 300, batch_first=True)
)
LSTM_decoder(
  (lstm): LSTM(600, 600, batch_first=True)
  (out): Linear(in_features=600, out_features=20, bias=True)
)

current model: CNN_LSTM
best train error:27.986526254507208
best validation loss:26.04691608135517
final test loss:28.677433087275578
time to predict is (seconds):5
Time use to predict:2
Train examples (images):12800
Val examples (images):2560
Test examples (images):5120BATCH_SIZE:32
AutoEncoder(
  (encoder): Sequential(
    (0): Conv2d(3, 8, kernel_size=(5, 5), stride=(1, 1), padding=(2, 2))
    (1): ReLU()
    (2): MaxPool2d(kernel_size=3, stride=2, padding=1, dilation=1, ceil_mode=False)
    (3): Conv2d(8, 16, kernel_size=(3, 3), stride=(1, 1), padding=(1, 1))
    (4): ReLU()
    (5): MaxPool2d(kernel_size=3, stride=2, padding=1, dilation=1, ceil_mode=False)
    (6): Conv2d(16, 32, kernel_size=(3, 3), stride=(1, 1), padding=(1, 1), bias=False)
    (7): ReLU()
    (8): MaxPool2d(kernel_size=3, stride=2, padding=1, dilation=1, ceil_mode=False)
  )
  (fc1): Linear(in_features=2688, out_features=1024, bias=True)
  (fc2): Linear(in_features=2688, out_features=1024, bias=True)
  (fc3): Linear(in_features=1024, out_features=2688, bias=True)
  (decoder): Sequential(
    (0): ConvTranspose2d(32, 16, kernel_size=(3, 3), stride=(2, 2), padding=(1, 1), output_padding=(1, 1))
    (1): ReLU()
    (2): ConvTranspose2d(16, 8, kernel_size=(3, 3), stride=(2, 2), padding=(1, 1), output_padding=(0, 1))
    (3): ReLU()
    (4): ConvTranspose2d(8, 3, kernel_size=(4, 4), stride=(2, 2), padding=(1, 1))
    (5): Tanh()
  )
)
LSTM_encoder(
  (lstm): LSTM(4096, 300, batch_first=True)
)
LSTM_encoder(
  (lstm): LSTM(8, 300, batch_first=True)
)
LSTM_decoder(
  (lstm): LSTM(600, 600, batch_first=True)
  (out): Linear(in_features=600, out_features=20, bias=True)
)
Adam (
Parameter Group 0
    amsgrad: False
    betas: (0.9, 0.999)
    eps: 1e-08
    lr: 0.0001
    weight_decay: 0.001
)
Adam (
Parameter Group 0
    amsgrad: False
    betas: (0.9, 0.999)
    eps: 1e-08
    lr: 0.0001
    weight_decay: 0.001
)
Adam (
Parameter Group 0
    amsgrad: False
    betas: (0.9, 0.999)
    eps: 1e-08
    lr: 0.0001
    weight_decay: 0.001
)
Adam (
Parameter Group 0
    amsgrad: False
    betas: (0.9, 0.999)
    eps: 1e-08
    lr: 0.0001
    weight_decay: 0.001
)

current model: CNN_LSTM
best train error:5.108844316922702
best validation loss:7.065883929912861
final test loss:6.810987692612867
time to predict is (seconds):5
Time use to predict:2
Train examples (images):12800
Val examples (images):2560
Test examples (images):5120BATCH_SIZE:32
AutoEncoder(
  (encoder): Sequential(
    (0): Conv2d(3, 8, kernel_size=(5, 5), stride=(1, 1), padding=(2, 2))
    (1): ReLU()
    (2): MaxPool2d(kernel_size=3, stride=2, padding=1, dilation=1, ceil_mode=False)
    (3): Conv2d(8, 16, kernel_size=(3, 3), stride=(1, 1), padding=(1, 1))
    (4): ReLU()
    (5): MaxPool2d(kernel_size=3, stride=2, padding=1, dilation=1, ceil_mode=False)
    (6): Conv2d(16, 32, kernel_size=(3, 3), stride=(1, 1), padding=(1, 1), bias=False)
    (7): ReLU()
    (8): MaxPool2d(kernel_size=3, stride=2, padding=1, dilation=1, ceil_mode=False)
  )
  (fc1): Linear(in_features=2688, out_features=1024, bias=True)
  (fc2): Linear(in_features=2688, out_features=1024, bias=True)
  (fc3): Linear(in_features=1024, out_features=2688, bias=True)
  (decoder): Sequential(
    (0): ConvTranspose2d(32, 16, kernel_size=(3, 3), stride=(2, 2), padding=(1, 1), output_padding=(1, 1))
    (1): ReLU()
    (2): ConvTranspose2d(16, 8, kernel_size=(3, 3), stride=(2, 2), padding=(1, 1), output_padding=(0, 1))
    (3): ReLU()
    (4): ConvTranspose2d(8, 3, kernel_size=(4, 4), stride=(2, 2), padding=(1, 1))
    (5): Tanh()
  )
)
LSTM_encoder(
  (lstm): LSTM(4096, 300, batch_first=True)
)
LSTM_encoder(
  (lstm): LSTM(8, 300, batch_first=True)
)
LSTM_decoder(
  (lstm): LSTM(600, 600, batch_first=True)
  (out): Linear(in_features=600, out_features=20, bias=True)
)
Adam (
Parameter Group 0
    amsgrad: False
    betas: (0.9, 0.999)
    eps: 1e-08
    lr: 0.001
    weight_decay: 0.001
)
Adam (
Parameter Group 0
    amsgrad: False
    betas: (0.9, 0.999)
    eps: 1e-08
    lr: 0.001
    weight_decay: 0.001
)
Adam (
Parameter Group 0
    amsgrad: False
    betas: (0.9, 0.999)
    eps: 1e-08
    lr: 0.001
    weight_decay: 0.001
)
Adam (
Parameter Group 0
    amsgrad: False
    betas: (0.9, 0.999)
    eps: 1e-08
    lr: 0.001
    weight_decay: 0.001
)

current model: CNN_LSTM
best train error:1.2454139943749971
best validation loss:6.114479450384776
final test loss:6.415459725337152
time to predict is (seconds):5
Time use to predict:2
Train examples (images):79360
Val examples (images):19200
Test examples (images):19200BATCH_SIZE:32
AutoEncoder(
  (encoder): Sequential(
    (0): Conv2d(3, 8, kernel_size=(5, 5), stride=(1, 1), padding=(2, 2))
    (1): ReLU()
    (2): MaxPool2d(kernel_size=3, stride=2, padding=1, dilation=1, ceil_mode=False)
    (3): Conv2d(8, 16, kernel_size=(3, 3), stride=(1, 1), padding=(1, 1))
    (4): ReLU()
    (5): MaxPool2d(kernel_size=3, stride=2, padding=1, dilation=1, ceil_mode=False)
    (6): Conv2d(16, 32, kernel_size=(3, 3), stride=(1, 1), padding=(1, 1), bias=False)
    (7): ReLU()
    (8): MaxPool2d(kernel_size=3, stride=2, padding=1, dilation=1, ceil_mode=False)
  )
  (fc1): Linear(in_features=2688, out_features=1024, bias=True)
  (fc2): Linear(in_features=2688, out_features=1024, bias=True)
  (fc3): Linear(in_features=1024, out_features=2688, bias=True)
  (decoder): Sequential(
    (0): ConvTranspose2d(32, 16, kernel_size=(3, 3), stride=(2, 2), padding=(1, 1), output_padding=(1, 1))
    (1): ReLU()
    (2): ConvTranspose2d(16, 8, kernel_size=(3, 3), stride=(2, 2), padding=(1, 1), output_padding=(0, 1))
    (3): ReLU()
    (4): ConvTranspose2d(8, 3, kernel_size=(4, 4), stride=(2, 2), padding=(1, 1))
    (5): Tanh()
  )
)
LSTM_encoder(
  (lstm): LSTM(4096, 300, batch_first=True)
)
LSTM_encoder(
  (lstm): LSTM(8, 300, batch_first=True)
)
LSTM_decoder(
  (lstm): LSTM(600, 600, batch_first=True)
  (out): Linear(in_features=600, out_features=20, bias=True)
)
Adam (
Parameter Group 0
    amsgrad: False
    betas: (0.9, 0.999)
    eps: 1e-08
    lr: 0.001
    weight_decay: 0.001
)
Adam (
Parameter Group 0
    amsgrad: False
    betas: (0.9, 0.999)
    eps: 1e-08
    lr: 0.001
    weight_decay: 0.001
)
Adam (
Parameter Group 0
    amsgrad: False
    betas: (0.9, 0.999)
    eps: 1e-08
    lr: 0.001
    weight_decay: 0.001
)
Adam (
Parameter Group 0
    amsgrad: False
    betas: (0.9, 0.999)
    eps: 1e-08
    lr: 0.001
    weight_decay: 0.001
)

current model: CNN_LSTM
best train error:0.9669813427780609
best validation loss:4.026895185617301
final test loss:3.2978203773498533
time to predict is (seconds):5
Time use to predict:5
Train examples (images):79200
Val examples (images):18720
Test examples (images):18720
BATCH_SIZE:24
AutoEncoder(
  (encoder): Sequential(
    (0): Conv2d(3, 8, kernel_size=(5, 5), stride=(1, 1), padding=(2, 2))
    (1): ReLU()
    (2): MaxPool2d(kernel_size=3, stride=2, padding=1, dilation=1, ceil_mode=False)
    (3): Conv2d(8, 16, kernel_size=(3, 3), stride=(1, 1), padding=(1, 1))
    (4): ReLU()
    (5): MaxPool2d(kernel_size=3, stride=2, padding=1, dilation=1, ceil_mode=False)
    (6): Conv2d(16, 32, kernel_size=(3, 3), stride=(1, 1), padding=(1, 1), bias=False)
    (7): ReLU()
    (8): MaxPool2d(kernel_size=3, stride=2, padding=1, dilation=1, ceil_mode=False)
  )
  (fc1): Linear(in_features=2688, out_features=1024, bias=True)
  (fc2): Linear(in_features=2688, out_features=1024, bias=True)
  (fc3): Linear(in_features=1024, out_features=2688, bias=True)
  (decoder): Sequential(
    (0): ConvTranspose2d(32, 16, kernel_size=(3, 3), stride=(2, 2), padding=(1, 1), output_padding=(1, 1))
    (1): ReLU()
    (2): ConvTranspose2d(16, 8, kernel_size=(3, 3), stride=(2, 2), padding=(1, 1), output_padding=(0, 1))
    (3): ReLU()
    (4): ConvTranspose2d(8, 3, kernel_size=(4, 4), stride=(2, 2), padding=(1, 1))
    (5): Tanh()
  )
)
LSTM_encoder(
  (lstm): LSTM(10240, 600, batch_first=True)
)
LSTM_encoder(
  (lstm): LSTM(20, 300, batch_first=True)
)
LSTM_decoder(
  (lstm): LSTM(900, 900, batch_first=True)
  (out_1): Linear(in_features=900, out_features=450, bias=True)
  (out_2): Linear(in_features=450, out_features=20, bias=True)
)
Adam (
Parameter Group 0
    amsgrad: False
    betas: (0.9, 0.999)
    eps: 1e-08
    lr: 0.0005
    weight_decay: 0.001
)
Adam (
Parameter Group 0
    amsgrad: False
    betas: (0.9, 0.999)
    eps: 1e-08
    lr: 0.0005
    weight_decay: 0.001
)
Adam (
Parameter Group 0
    amsgrad: False
    betas: (0.9, 0.999)
    eps: 1e-08
    lr: 0.0005
    weight_decay: 0.001
…
