current model: CNN_LSTM
best train error:0.8511893601851029
best validation loss:3.8887125944479917
final test loss:3.047749871474046
time to predict is (seconds):5
Time use to predict:5
Train examples (images):79200
Val examples (images):18720
Test examples (images):18720BATCH_SIZE:24
AutoEncoder(
  (encoder): Sequential(
    (0): Conv2d(3, 8, kernel_size=(5, 5), stride=(1, 1), padding=(2, 2))
    (1): ReLU()
    (2): MaxPool2d(kernel_size=3, stride=2, padding=1, dilation=1, ceil_mode=False)
    (3): Conv2d(8, 16, kernel_size=(3, 3), stride=(1, 1), padding=(1, 1))
    (4): ReLU()
    (5): MaxPool2d(kernel_size=3, stride=2, padding=1, dilation=1, ceil_mode=False)
    (6): Conv2d(16, 32, kernel_size=(3, 3), stride=(1, 1), padding=(1, 1), bias=False)
    (7): ReLU()
    (8): MaxPool2d(kernel_size=3, stride=2, padding=1, dilation=1, ceil_mode=False)
  )
  (fc1): Linear(in_features=2688, out_features=1024, bias=True)
  (fc2): Linear(in_features=2688, out_features=1024, bias=True)
  (fc3): Linear(in_features=1024, out_features=2688, bias=True)
  (decoder): Sequential(
    (0): ConvTranspose2d(32, 16, kernel_size=(3, 3), stride=(2, 2), padding=(1, 1), output_padding=(1, 1))
    (1): ReLU()
    (2): ConvTranspose2d(16, 8, kernel_size=(3, 3), stride=(2, 2), padding=(1, 1), output_padding=(0, 1))
    (3): ReLU()
    (4): ConvTranspose2d(8, 3, kernel_size=(4, 4), stride=(2, 2), padding=(1, 1))
    (5): Tanh()
  )
)
LSTM_encoder(
  (lstm): LSTM(10240, 1024, batch_first=True)
)
LSTM_decoder(
  (lstm): LSTM(1024, 1024, batch_first=True)
  (out_1): Linear(in_features=1024, out_features=512, bias=True)
  (out_2): Linear(in_features=512, out_features=20, bias=True)
)
Adam (
Parameter Group 0
    amsgrad: False
    betas: (0.9, 0.999)
    eps: 1e-08
    lr: 0.0005
    weight_decay: 0.001
)
Adam (
Parameter Group 0
    amsgrad: False
    betas: (0.9, 0.999)
    eps: 1e-08
    lr: 0.0005
    weight_decay: 0.001
)
Adam (
Parameter Group 0
    amsgrad: False
    betas: (0.9, 0.999)
    eps: 1e-08
    lr: 0.0005
    weight_decay: 0.001
…
